results/3DBall_01/3DBall/3DBall-427966.onnx (onnx, 73999 bytes, 9 tensors)

network_body.observation_encoder.processors.0.normalizer.running_mean f4 [8]
00000000: 2725 4bbb 8825 e3b9 db57 b2be f4b2 4340
00000010: b6bf 3ebb 2517 883c 7179 8bbe c6ba a5bb
-0.0030997486 -0.00043324777 -0.34832653 3.0577974 -0.0029105968 0.016612599 -0.2724109 -0.0050576655

network_body._body_endoder.seq_layers.0.weight f4 [128, 8]
00000000: eca7 16be deef 683e 6aed c9be f06a 83be
00000010: ed83 09bf 16ed c3bd 742d e43e f38b a4bd
00000020: bb7b 2bbf ae7a 203e 45d3 b83d 367b acbe
00000030: be69 483e 99ce d0bd 395e 77bd 73ab cabe
00000040: 5686 7dbe 9b96 dc3d 54ff 91be 9a9c 16bf
00000050: 9905 ad3e 942a 233e 5886 88be da25 b0be
00000060: b7f9 58be 2b4a e03e 13a7 c93e 5696 cabe
00000070: 70eb 233d 2e39 82bd 3355 91be af37 4bbf
00000080: 1bcb edbd b06f b93d 12c4 c5bb fb1b f0bc
00000090: bba7 fcbe 4d9b 0dbf c93c 983d 3535 e73e
000000a0: 9a33 89be e01e 963e 4a91 40bf ac42 0bbf
000000b0: 439a 37be 4eac 1a3f ed07 c2bd b0c4 77be
000000c0: 1de5 4abe 2279 643e 7c8b a33d 1330 f43d
000000d0: b711 48bd 1663 86bc 1438 11bf adc0 34bf
000000e0: 20bb cb3e e9e9 8b3e 90f5 a13e ab87 09be
000000f0: 809c 96be 705c c0be 811d 9cbe 0361 c63e
00000100: 25ca 3c3c f534 9b3e d89d 76be a918 96be
00000110: 6e0e 103f 6db5 0f3f 2b95 31bd fb5a 11be
00000120: 87fc 513e 4586 053e e0e2 34bd a816 5ebf
00000130: 9605 a1be 64a8 a8bb 0346 223f 0be4 673e
00000140: 7464 313f 6604 99bd c168 41be b39f 6ebf
00000150: ead9 c73d b302 343f aaf3 833e c0ba a23e
00000160: 9298 a93d 039e 2abf bc5b 8b3e a6c1 99be
00000170: 957b b33e d66d ee3c 2d9c d33d b4eb a63e
00000180: bf93 15bf 7433 cbbd 8176 26be 3068 0dbf
00000190: 1977 f63e a27f 953e 9fd3 4bbe e293 1abf
000001a0: e0ad 12bf fee5 c0bd a437 89bd b03d 26be
000001b0: 7285 11bf 4c1d d93e 35e5 bf3e b225 1cbd
000001c0: a99b 2c3e cb4f 09be 87a4 26be 824b 983e
000001d0: d748 c23e 284b 973e 251a d4bd 94f0 083e
000001e0: 0d58 38be c581 333e 1a51 003f d08e cc3e
000001f0: de98 e1bd 02a7 eb3e 62af 23be 092e e53e
00000200: 4cb4 49be c2c7 8dbd 5626 4f3e e8e2 483f
00000210: aa7e 9bbc 1b92 48be 13f8 0dbe 48ac 0f3f
00000220: b728 d03d 1edc 8e3e 174d debe 08fa 1ebf
00000230: 565e b1bb 3855 1cbf 879c a23e e0b4 583e
00000240: 9593 1ebf d3d2 a93c c0b2 bcbe dd11 fd3d
00000250: c7e6 983d 96ae b7be a63d cfbe bf8f 883d
00000260: 6579 30be 501f 293f 0d2b d73d 72d4 9a3e
00000270: 563b 87be b1dd f33d 2d11 693e 466d 19bc
00000280: 5673 563e c3a1 f9be 2dc3 de3e dce6 f3be
00000290: 1c7a 57be cfe8 b7be c4a3 5fbd 99c4 5fbe
000002a0: bfe7 dcbe 08a2 853e 6980 0b3f 4397 803d
000002b0: 00e9 873e cda5 253e ec97 3a3d 089a babd
000002c0: 97e4 cabd d657 a63d 16f1 29ba d833 483e
000002d0: b43b 753e dea4 653e 0730 59bc 4f7b 223f
000002e0: 1e49 303d 383a 2e3e 480f f9bb 5744 d03e
000002f0: dc9e afbe 400b 4c3e 8cba 72be 876d cc3e
00000300: 55c5 debe 6f03 193e b7b4 2ebd 7423 eebd
00000310: 180e ea3e 7206 75be b6da 5f3e 34d9 223f
00000320: b6af c6be c1f9 003f 9889 463d e40f c93e
00000330: 96cb 16bc 1a36 26bd 4a60 b7bc 342e d0bd
00000340: 9189 453d 8d76 6b3e acee 7cbf 590a 993d
00000350: dc2d b53d 5942 babe 9dd8 a33e d434 f93c
00000360: 29f9 03bf 0429 893e b023 8f3e ac5c 26bf
00000370: 7734 6fbe ce04 0e3f 7e29 c3be 772e e9be
00000380: e2e3 7b3d 548f 85be 7f80 873f 5271 44be
00000390: e0f9 9bbe 7c51 1ebf c8bf b23e 44a7 f1bd
000003a0: b291 cebe 51a7 9b3c 52e6 d7be 23f8 57be
000003b0: 6bef 0e3f 3a9a 283f bc35 893e c35f 0ebe
000003c0: eb1d c7be 9aa8 8d3e d735 613e 69d4 893e
000003d0: e2b0 a23e 4d90 e63e 4718 bbbe 55bb 033d
000003e0: 9edd 8c3e 9f00 bf3e 10ca e03c e07b d7be
000003f0: 0109 9ebe f911 b7be 6cc1 0a3f 3055 353e
-0.14712495 0.22747752 -0.39438945 -0.25667524 -0.5371693 -0.09566705 0.44565928 -0.08034506
-0.6698567 0.15671799 0.090246715 -0.33687752 0.19571587 -0.101956554 -0.060392592 -0.3958393
-0.24758276 0.10770913 -0.28515112 -0.58832705 0.33793333 0.15934211 -0.26664996 -0.34403878
-0.21189009 0.43806586 0.3938528 -0.39567822 0.040019453 -0.063585624 -0.28385314 -0.7938184
-0.11611005 0.09054506 -0.0060353363 -0.029310217 -0.49346718 -0.55315095 0.07433469 0.4515778
-0.2679718 0.2932043 -0.75221694 -0.5439861 -0.1792994 0.60419166 -0.09474168 -0.24196124
-0.19813962 0.22311834 0.07985589 0.11923232 -0.04884502 -0.01640467 -0.56726193 -0.706065
0.39791203 0.27326897 0.31632662 -0.1343066 -0.29416275 -0.37570524 -0.3049126 0.3874589
0.011522804 0.3031384 -0.2408365 -0.2931569 0.5627202 0.5613621 -0.04335515 -0.14194863
0.20506488 0.13039501 -0.044161677 -0.8675332 -0.31449574 -0.005147027 0.6338808 0.22645585
0.69293904 -0.07471542 -0.18887617 -0.9321243 0.09758361 0.7031662 0.25771838 0.31783104
0.082810536 -0.66647357 0.27218425 -0.30030555 0.35055223 0.029105108 0.103325225 0.32601702
-0.5842857 -0.09921923 -0.16256143 -0.552371 0.4813774 0.2919894 -0.19904946 -0.603819
-0.5729656 -0.094188675 -0.06700066 -0.1623447 -0.56844246 0.42405164 0.3747956 -0.038121887
0.16856255 -0.13409345 -0.162737 0.29745108 0.37946197 0.29549527 -0.10356549 0.13373023
-0.18002339 0.17529972 0.5012375 0.39952707 -0.11015485 0.46025854 -0.15984872 0.44761685
-0.19697684 -0.069228664 0.20229468 0.7847123 -0.018981297 -0.19586985 -0.13864164 0.56122255
0.10164016 0.2790231 -0.4341819 -0.6210027 -0.005412857 -0.61067533 0.31760046 0.21162748
-0.6194394 0.020730412 -0.36855125 0.12356923 0.07465892 -0.35875386 -0.40476722 0.066680424
-0.17233808 0.66063404 0.10506258 0.30240208 -0.26412457 0.11907519 0.22760458 -0.009364432
0.20942435 -0.48756227 0.43508282 -0.4763707 -0.21042675 -0.35919806 -0.05459954 -0.2185234
-0.43145558 0.26100183 0.54492813 0.06278851 0.26544952 0.16176529 0.04555504 -0.091114104
-0.09906881 0.08122222 -0.0006482763 0.19551027 0.23948556 0.22426173 -0.0132560795 0.63469404
0.04303848 0.17014396 -0.0076006986 0.4067714 -0.34300888 0.19926167 -0.23703974 0.39927313
-0.43509927 0.14942716 -0.04265281 -0.11627856 0.45713878 -0.2392824 0.21860775 0.63612676
-0.38805932 0.50381094 0.048471063 0.39269936 -0.009203812 -0.04057894 -0.022384781 -0.101650625
0.048226897 0.22994442 -0.98801684 0.07472677 0.088466376 -0.36378744 0.320012 0.030420698
-0.51552063 0.26789105 0.27956915 -0.64985156 -0.23359857 0.5547608 -0.38117594 -0.45543262
0.061496623 -0.26085913 1.0586089 -0.19183853 -0.30464077 -0.61843085 0.34911942 -0.117994815
-0.40345532 0.019000681 -0.42167908 -0.2109075 0.5583407 0.6586033 0.2679881 -0.13903718
-0.38890013 0.27667695 0.21993195 0.2691987 0.31775576 0.45031968 -0.3654196 0.032161076
0.2751283 0.3730516 0.0274401 -0.42086697 -0.30866244 -0.357559 0.5420139 0.17708278

network_body._body_endoder.seq_layers.0.bias f4 [128]
00000000: e856 a5bd dee4 24bd 8965 a0bd 0f84 c13c
00000010: 5a52 94bd 5dda 53bd 4a32 30bc 4122 3fbd
00000020: a60a f93b e5a5 5abd 6bc4 c4bb 5986 c2bd
00000030: 462f 09bd 4831 4c3d ee63 0bbd d7be 973c
00000040: cdfc 883d 4251 a2bd cb80 efbb 7ce7 e1bc
00000050: 5107 9abd dd6c 913d 1152 43bd 2fca 95bd
00000060: 5f4d c0bc 292f 423d bcdc 50bd f7dc 85bc
00000070: c9a9 ae3c 8dc9 9c3c 9eb7 003d 998d 8abd
00000080: 36c1 97bd e727 bebd a374 123d d1cc 083d
00000090: f144 05bd 82a7 75bc bd30 823c 60c1 19bd
000000a0: 0306 24bd 9509 51bd 54c8 53bc 1c11 503b
000000b0: 8780 24bd 93de 01bc 37ba f7bc d40e 43bd
000000c0: 6e84 57bd 6c28 4dbc 4799 06be ddc3 41bb
000000d0: 9f35 953c aba7 27bb 2785 30bc e456 bebd
000000e0: ab68 d3bc ed3a 97bc 2294 3a3d 2e7f 33bd
000000f0: e1a2 ae3a 4681 92bb ad38 d03b 664d 873d
00000100: eeef f4bb 79f9 cbbc daca 72bd c56d 6abd
00000110: 790d 88bd ce8e c2bd 9f58 f1bc 2c5e e4bc
00000120: bd57 1cbd cbce 873c 43ca 39bd 4059 1d3d
00000130: 9382 43bc e384 48bd 4cf3 02bc 189c 25bd
00000140: 633f e9bc 416c 133d 9115 bfbc 8aa6 893d
00000150: 4edb fdbb 7100 b4bd 4a66 3abc 3f24 00bd
00000160: d65c 31bd 6a27 f6bc 0991 8b3c cdca dbbb
00000170: 5c1a 523d e3ce bd3c bd47 b8bc f7dc e6bc
00000180: 41dc 59bd 6d2a 31bd b8e0 ae3c 5dfa 91bc
00000190: b6b3 18bd 6236 153d fbfd 283d 9efe 593c
000001a0: 9922 9b3c 10a8 a33d 5205 10bd ec7b 153d
000001b0: 1194 273d cac6 32bd 270a 41bc 84a9 b6bd
000001c0: 6462 e2bd c357 24bc 3f7c c3bd 84f4 053c
000001d0: 72a8 0bbd 110a 02bd d0a8 88bd 7dc0 6ebd
000001e0: c0f2 7a3d de45 54bd 4d7f a9bd 0e5f b33c
000001f0: f271 b5bc 572a 8fbd e869 93bc 6f51 e9ba
-0.08073217 -0.040257327 -0.07831866 0.02362254 -0.0724227 -0.05172192 -0.010754177 -0.046663526
0.0076001463 -0.053380866 -0.00600486 -0.09498281 -0.03349235 0.049851686 -0.034030847 0.018523617
0.06688843 -0.07925655 -0.0073090545 -0.0275762 -0.07520927 0.07100842 -0.047685686 -0.07313954
-0.023474393 0.047408257 -0.05099176 -0.016340716 0.021321194 0.019139076 0.03142511 -0.06765289
-0.07409899 -0.092849545 0.035755765 0.033398453 -0.03253645 -0.01499355 0.01589238 -0.037537932
-0.040044796 -0.05103453 -0.01292618 0.003174848 -0.040161636 -0.007926601 -0.030240161 -0.047621563
-0.05261653 -0.012521844 -0.13144408 -0.0029566207 0.018214045 -0.0025582116 -0.0107739335 -0.09293917
-0.025806746 -0.018460715 0.045551427 -0.04382246 0.0013323688 -0.004470977 0.0063544125 0.066065595
-0.007474891 -0.024899231 -0.059275486 -0.05723359 -0.06643195 -0.09499894 -0.029461203 -0.027876936
-0.03816961 0.016578099 -0.045358907 0.038415194 -0.011932987 -0.048954856 -0.007992577 -0.040432066
-0.028472608 0.03599191 -0.023325713 0.06721218 -0.0077470904 -0.08789147 -0.011376927 -0.031284567
-0.043301426 -0.030048091 0.017036932 -0.0067075253 0.05129467 0.02316994 -0.022495145 -0.028181536
-0.053188566 -0.04325335 0.021347389 -0.017819578 -0.03728076 0.036428817 0.04125784 0.013305334
0.018937396 0.0799104 -0.035161324 0.036495134 0.04091269 -0.04364661 -0.011782206 -0.08919051
-0.11053923 -0.01003069 -0.095451824 0.008175973 -0.03409619 -0.03174788 -0.066728234 -0.05828904
0.06126666 -0.051824443 -0.08276234 0.021895912 -0.02214906 -0.069904976 -0.017994836 -0.0017800758

network_body._body_endoder.seq_layers.2.weight f4 [128, 128]
00000000: 6239 f93d 7d11 573c 0389 a73b 21e1 01bd
00000010: 93e4 e8bb 7432 c7bd c645 4dbe 5d0a 5d3d
00000020: 3e12 e3bc b3ef d23d a4af 3dbe bdf6 d5bd
00000030: a389 dcbc da74 7ebe c831 2a3c 7c95 11be
00000040: 6182 31bd 735e 5c3c d91d 94bc 6517 3bbe
00000050: 210a a9bd 7ed1 85be d339 aa3d 1b52 463c
00000060: 8d88 9dbd 35b5 2cbd 744c f1bd b193 3cbd
00000070: 75b9 b93d 64d6 c7bd c889 08be f1ad 2f3e
00000080: d91d 573e f615 12be 1c25 213e 92a1 f53a
00000090: 47d6 e33d fe53 8abd 7c26 bfbd 9571 0ebd
000000a0: 7796 233d 4369 19bd 268a 16be 63b5 38be
000000b0: 32be d2bd b0a1 97bd 3fe4 cd3d c6fe c43d
000000c0: d929 0cbd c4df 613e adc4 933c 0c20 4c3e
000000d0: b26c 90bd 4a6f c03d 1a79 a6bb ec27 bd3d
000000e0: 0906 0dbe 5782 823d ab86 463c 0d56 cb3c
000000f0: cf5b 613d 8844 69be 70cb 373e 72c9 acbd
00000100: f4db 933d 8b29 31be 3e0a fbbc 87d6 453b
00000110: bac3 c6bd 31b0 263d 8cf6 e53c 8e8f b3bb
00000120: c079 61bd a518 48be 6462 04be f368 e83b
00000130: 2bb6 c63b d4ad ad3d 77ac 0d3e 98bf 173d
00000140: 133b c73c 325a bebd faac 4a3e f2c3 e7bd
00000150: e8b5 fd3d 14a3 3ebe 0208 7b3c 46b4 17be
00000160: 2220 fb3d 77b0 11bc 79d9 f9bd 335b 78bd
00000170: ee29 0ebd 340b 7fbd 3414 45bd 0a8f 8dbe
00000180: 4f9e 88bd 6d81 943c e33f 2fbe 927c 813e
00000190: bc94 0cbe 6d0a 12bc 1079 38be fcd3 9cbc
000001a0: b27a debd 8fb8 b8bd ec10 95bd f2cc b63c
000001b0: d524 38be 9941 42bd 8270 943b b60d 11be
000001c0: 5367 afbd b391 e8bd dd77 c2bd ab56 12be
000001d0: 1a89 613b 1fa7 223e 4164 833d fa8c 7cbd
000001e0: e879 723c 6042 3cbc f979 01bd 728d 513c
000001f0: 092f 213d 058f 1fbe 467c 05be 4e53 a2bd
00000200: 90bd 1d3d bfd8 d93d d7ce bc3d ec25 413c
00000210: dd32 c4bd 1ef9 0ebc f34d c73d 4ef0 3dbd
00000220: e249 553d 0933 51bd c6bb 69be e654 89bd
00000230: 4e24 7ebd 9a83 82bd ca67 8e3d 5820 0fbe
00000240: c652 84bd 4dd3 e4bc 46f0 533d 62d5 703c
00000250: 7e99 793c 6d02 043d 5721 d3bb d495 d83c
00000260: 6811 06be 238d 293d b367 a63d 4b27 89bd
00000270: fc89 adbd cb98 52bd 93bb 68be 9799 f8bd
00000280: d3e1 913d a0f0 54bb e13a dfbd c3f2 6abe
00000290: f398 46bd d5db 11be 8df8 dbbd 6f19 64bd
000002a0: a5b9 f0bd aabe 28bd b004 3bbd 60d8 153c
000002b0: d826 a83c 370b 07be 6c67 21be 0206 c73c
000002c0: 527b 6d3d 6f42 adbc c7c4 383d 89fa 2e3c
000002d0: 766f 2dbe 64c4 243d f6af 91ba a834 edbc
000002e0: dcd0 183b 787b eb3d 865e 26be 82c8 6dba
000002f0: 54f8 303d 7322 21bd a72c 2cba 1197 12be
00000300: 8666 283d bd17 733e e183 103e 912e 6d3c
00000310: 403e 80bc 7986 9c3d b5d8 67bd 175c c33d
00000320: 7f49 cc3d 0c37 12be 6290 793c 3d6b 4b3e
00000330: 36e6 9e3d ce60 7b3d 56fc d53d c08d 8dbd
00000340: 60bd 95bd 91aa 233c c445 223e f92b fabc
00000350: 8600 ddbd 938d 1bbe d39e ac3d 36ca b93c
00000360: be3f 6cbd d19d 91bd f8b1 c0bd 4815 a6bd
00000370: e0e2 323d 6539 cdbc 40ed 893d 6432 003e
00000380: b2c5 bbbd a48c cfbd 6f74 343e 1963 f43d
00000390: 19b0 dabd 65d4 21be 9575 42bd 0a4d a0bd
000003a0: c568 5c3d 17b5 d7bd 897b 00be c3a4 373d
000003b0: 6b37 0ebe d524 c8bd e57a d5bd 781d 4c3d
000003c0: b78d 8d3d c040 823d f3ff 21be 68eb a43b
000003d0: fc77 19bc b08c bebd cc9c 033d 8779 d53d
000003e0: f88a 753d e777 003e 56a0 9b3d e5c5 d03d
000003f0: 94e8 9bbc 77f4 f83d f8ef 5dbe 9ae2 a6bd
0.12169148 0.013126728 0.0051127686 -0.03170884 -0.0071073263 -0.0972642 -0.20046148 0.05396496
-0.02771866 0.10299625 -0.18524033 -0.10447452 -0.026921099 -0.24849263 0.010387845 -0.1421718
-0.04333723 0.013450253 -0.018080639 -0.18270643 -0.08253885 -0.26136392 0.0831181 0.012104536
-0.076920606 -0.042165 -0.117821604 -0.046039287 0.09068576 -0.09757689 -0.1333381 0.17156197
0.2100748 -0.1426619 0.15736812 0.0018740168 0.111248545 -0.067543015 -0.09333512 -0.03477629
0.039938416 -0.0374539 -0.14701137 -0.18037944 -0.10290183 -0.07403886 0.100533 0.09618907
-0.034219597 0.22058016 0.018038118 0.199341 -0.07051982 0.09396227 -0.0050803544 0.0923613
-0.13771833 0.063725166 0.012117068 0.024821306 0.055019196 -0.22780049 0.17948699 -0.0843686
0.07219687 -0.17301004 -0.030644532 0.0030187683 -0.09705301 0.040695373 0.028071664 -0.0054797595
-0.05504775 -0.19540651 -0.12928158 0.007092589 0.0060641966 0.08480421 0.13835321 0.037047952
0.024320161 -0.09294547 0.19792548 -0.113166705 0.123882115 -0.18616897 0.015321733 -0.14814863
0.12261988 -0.00889217 -0.12199683 -0.06063385 -0.034707956 -0.062266544 -0.04811497 -0.27648193
-0.0667082 0.018128121 -0.17114215 0.25290352 -0.13728613 -0.0089136185 -0.18014932 -0.01914405
-0.10863246 -0.09019577 -0.07278618 0.022314522 -0.179828 -0.04742584 0.0045300135 -0.14165387
-0.085646294 -0.11355915 -0.09495518 -0.14290874 0.0034413994 0.15884064 0.06415606 -0.061657883
0.0147995725 -0.011490434 -0.031610463 0.012790071 0.039351497 -0.15581901 -0.13035688 -0.07926045
0.03851086 0.10637044 0.09219139 0.011788826 -0.09580014 -0.008726386 0.097316645 -0.04637175
0.052072413 -0.05107406 -0.22825536 -0.06705646 -0.06204634 -0.06372757 0.0695339 -0.13977182
-0.064611 -0.027932787 0.051742814 0.014699312 0.015234349 0.032228876 -0.0064431834 0.026438631
-0.13092577 0.041394364 0.08125248 -0.06696948 -0.08473584 -0.051415246 -0.22727804 -0.1213867
0.07123151 -0.0032492056 -0.10899902 -0.22944169 -0.048485707 -0.14244016 -0.10740767 -0.055688318
-0.11754159 -0.041197456 -0.045658767 0.009145826 0.020526335 -0.13187872 -0.15762109 0.024294857
0.057978936 -0.021149842 0.045109536 0.010679849 -0.1693705 0.040226355 -0.0011115063 -0.028955773
0.002331785 0.11498159 -0.16246995 -0.00090707105 0.043205574 -0.039339494 -0.0006567933 -0.1431544
0.0411134 0.23739524 0.14112808 0.014476434 -0.015654683 0.07642836 -0.056603152 0.09539049
0.09974956 -0.14278811 0.015232177 0.19865127 0.07758753 0.061371617 0.1044852 -0.06911802
-0.07311511 0.009989397 0.15846926 -0.030538546 -0.107911155 -0.15190725 0.08428731 0.02267943
-0.057677977 -0.07110179 -0.09408945 -0.08109528 0.043673396 -0.025051782 0.06734705 0.12519222
-0.09168567 -0.10134247 0.17622541 0.11932964 -0.10678119 -0.15803678 -0.047475416 -0.07827194
0.053810854 -0.10532587 -0.12547125 0.044834863 -0.13888328 -0.0977265 -0.10423831 0.04983279
0.069117956 0.06360006 -0.15820293 0.0050329454 -0.009366985 -0.09304178 0.032131955 0.1042357
0.059946984 0.12545739 0.07598941 0.101939954 -0.0190318 0.12156003 -0.21673572 -0.081486896

network_body._body_endoder.seq_layers.2.bias f4 [128]
00000000: 6eff 42bb 40f9 7dbc 3c80 90bd 1d03 4dbc
00000010: 64bb b1bc c93a 803d dd0e 12bd 8a81 353d
00000020: c47d c2bb 1f79 2fbd 18a8 3e3d c081 c33d
00000030: 2156 063a b9d3 e7bc 87c1 89ba 0177 9dbd
00000040: 8e00 64bd 1dc9 38bd f660 2c3d 5cd8 36bd
00000050: c2e7 843c c560 783d 7c8d 2abd c978 203d
00000060: 3b71 84bd 5b84 c43c 420e 593c 4461 66bd
00000070: ee0f 223c d4b8 a73c aef2 6fbd 8672 f13c
00000080: b6fb ce3b b8b5 06bd 9e5d 04bd 50b4 b53c
00000090: b55f 0cbd 7f03 c53c 0741 973d fa59 8c3d
000000a0: c449 16bd af34 72bd 399e ab3c f82c 593d
000000b0: 2295 4e3d 5066 7c3c f487 163d 9e06 9cbc
000000c0: b84d 213d 9090 3c3d 8c29 9cbc 81f1 473c
000000d0: 34f9 8d3a 71a0 0abd d6ce 6ebd e384 14bd
000000e0: 16df 113d 3db7 2b3d 7354 573c 4a7b 203d
000000f0: 1224 4e3d 8084 b5bc b476 62bd a2d9 debc
00000100: da52 2f3d 8f29 02bd d676 26bd 484e f4bc
00000110: 7a49 f23c 9617 39bd b71e 053b 8fa7 8dbd
00000120: aaf4 d53c 96df 4bbd 69de 74bd 53e1 843d
00000130: f560 6ebd 0edf 36bd 39cd f9bb 94dc d8bc
00000140: 572e a73b 3fe6 60bd d64f db38 21a5 5abd
00000150: 0e6a b23c 8f4d 85bd 7fd9 b4b7 19eb f0bc
00000160: f125 b4bc c39f ddbc e3be 2cbd 99a5 16bd
00000170: 412a 413b e4a4 503d 6a47 b6bc 4c70 933d
00000180: 8371 0c3c 3669 3a3d 78c1 debc 2549 0dbc
00000190: 9e70 04bd 05de ee3d baef 423d 9434 ecbc
000001a0: e9cd 863c f8c9 adba 3e87 253d b80b 1fbd
000001b0: 9839 d53b b088 f0bb e8d3 e53d c584 0e3d
000001c0: 8117 1b3d bede aa3c dba3 643d 95eb 9dbd
000001d0: 178d 7e3d eee3 93bd 6f5a 083a e9a2 5f3d
000001e0: 3ca2 1dbd 7a3b 2cbd ddb8 e5bc 0f9e a73d
000001f0: 173f d93c d0b2 03bd 10f4 17bd d035 d53d
-0.0029754299 -0.01550132 -0.07055709 -0.012512949 -0.0216958 0.062612124 -0.035658706 0.04431299
-0.0059354026 -0.04284012 0.046547025 0.09546232 0.00051245285 -0.0282992 -0.0010509946 -0.07688714
-0.05566459 -0.04511367 0.042084657 -0.04463993 0.016223792 0.06063916 -0.041638836 0.03917769
-0.064669095 0.023988893 0.013248028 -0.056245103 0.009891493 0.020473875 -0.058581047 0.029473554
0.0063166274 -0.032888144 -0.032315843 0.022180706 -0.03427096 0.024049519 0.0738545 0.06853099
-0.036691442 -0.059132274 0.02094947 0.0530214 0.050435193 0.015405253 0.03675075 -0.019046124
0.03938076 0.046036303 -0.01906278 0.012203575 0.0010831715 -0.033844415 -0.058302723 -0.036259543
0.035613142 0.041922797 0.013142693 0.039180078 0.050327368 -0.022157907 -0.055288985 -0.027203385
0.042803623 -0.031777915 -0.040640675 -0.029822484 0.029576052 -0.04518851 0.0020312497 -0.06916725
0.026117641 -0.049773775 -0.05978242 0.0648829 -0.058197934 -0.044646315 -0.0076233414 -0.026472367
0.0051019597 -0.05490708 0.000104576044 -0.053380135 0.021779086 -0.06508934 -2.1558952e-05 -0.029408978
-0.021990748 -0.02705372 -0.04217423 -0.03677902 0.0029474648 0.050938502 -0.02225085 0.07199153
0.008571985 0.045510493 -0.027191862 -0.008623396 -0.032333963 0.116634406 0.047591902 -0.028833665
0.016455607 -0.0013259044 0.04041218 -0.038829535 0.00650711 -0.007340513 0.112220585 0.034794588
0.037864212 0.020858165 0.055820327 -0.07710949 0.062146273 -0.072212085 0.0005201464 0.054598723
-0.038484797 -0.04204891 -0.028042251 0.08184444 0.026519341 -0.03215295 -0.03709799 0.104106545

action_model._continuous_distribution.log_sigma f4 [1, 2]
00000000: 89a5 49be 1907 2fbe
-0.19692053 -0.17092551

action_model._continuous_distribution.mu.weight f4 [2, 128]
00000000: 6370 e8bd 5e93 0ebd 7e71 8f3b 540e a8bd
00000010: 6e41 32bc deb2 fc3c d2cf 9bbc 9d57 1c3d
00000020: 22f3 edbc 8255 963b b16b 343d 703b c63d
00000030: f925 4cba 1877 27bd a4d4 aabb 61d6 773b
00000040: dee9 e0bc 755e d2bc bdf1 d43c 8d57 75bc
00000050: c7a0 9c3c 5e4c 9d3c 043d b4bc ea76 6f3c
00000060: fd18 17bd 4116 813b 1950 3bbd deff 65bc
00000070: 6ef7 07bd f4a9 d83b f169 fabc d2a5 86bd
00000080: 3ab5 e0bc e22a 3a3b 9eb8 81bd fc73 bd3c
00000090: 3b70 61bc 8b44 c83c b0e2 da3d 5aa5 37bc
000000a0: 5a71 5bba 7b4b 01bd 2df2 f53a fc29 103d
000000b0: 1354 323c 0963 18bd 1e50 323d 9484 91bc
000000c0: df5e a6bd 6b2d 413d 29b6 d7bc 2b5c 063c
000000d0: ddaa 6339 81ee 14bd 71f0 c5bc 304e 1cbb
000000e0: 7ec2 a63c c45e b03c ecfb bd3c b5c3 eabc
000000f0: e9b5 1a3d b547 b4bc 1f56 b9bc 4869 01bc
00000100: f2b9 a93b 0b9a b7bd 1c99 36bc cf55 163c
00000110: 6ddd ca3c 47de 32bd 35a1 93bb b291 66bc
00000120: 9178 ab3b df9a b8bc 3ba8 c5bc 7d59 2c3d
00000130: 9622 84bc cbb1 0dbc 1bf7 92bc 7337 8f3b
00000140: bf48 6dbc e8a0 44bc 52e2 cfbd 113d 36bd
00000150: 103b bf3b b99c 28bc fab8 afbc 54d4 42bc
00000160: bfb4 a5bc 0a8a a0bd b09f dbbc 66a9 48bd
00000170: 1d49 32bc 55f3 ae3c b02d f3bd fcbc a23d
00000180: 0182 b3bd 651f 4c3c e4fd f5bc 9c48 7e3c
00000190: 39aa c4bc 86bd c93d b372 453d 9c90 5cbb
000001a0: 5496 58bb e814 063b fc27 1e3d 9c52 bcbc
000001b0: f94b dfbc ed35 05be cab0 893d c5bb 853d
000001c0: 7473 5d3b 94a1 7f3c 45df f73c 46af cbbb
000001d0: 66dc 00bc cf8e ff3b a317 d9ba 5818 143d
000001e0: a759 89bc e04c a3bb 1efa 80bd 06d0 6b3d
000001f0: 283a a33c 5c54 93bc af6f 07bc 1bff a13d
00000200: 1623 f1ba e2ba e83c 3b6c 4abb 6dfc ec3c
00000210: 164b 423c a7a7 8a3d 5b56 de3b d2ab 70bd
00000220: f9ff dd3c 5186 debc ebf4 bd3b 8f2d 03bd
00000230: 003e 0a3b 451c e63c 7fbb 3b3c 3139 afbb
00000240: d4a4 853c 5559 373c 670e a73c 23f2 26bc
00000250: da81 be3b e518 a43c a3a2 bf3a ac8f 093c
00000260: 8ba9 983c b469 d2bb 47fe afbd aa44 b2bb
00000270: 48eb 733d 9ba2 40bb a28c dbbb 84cc a23d
00000280: 8b04 8c3d 2e01 073c 7e7c 223d e946 7e3c
00000290: e9b6 e73c 0ccd 50bd e53c 433c fff7 c13d
000002a0: 0882 1bbb c58b 563b 52b7 12bd 4560 763d
000002b0: cdcf e93d b41d 8f3d b255 8dbc b421 9b3b
000002c0: f5a7 e23d cd6b d03c 7def e1bc 39b9 c73b
000002d0: f242 abbb 71cd f23c a782 9e3c 4324 9ebb
000002e0: b6e3 1db8 f817 913d cda3 f8bc 0cf9 0ebe
000002f0: 485e 9cbc b755 01bd 5684 543c d9c2 8e3c
00000300: 43b7 06ba fa9c 1dbc c05a 20bc a5a5 24ba
00000310: f625 9a3b c5b5 f33c 3f30 87bd 28d8 ed38
00000320: 8a74 053c 2e81 dbbb 672e ac3c 693b 303d
00000330: cc0e ae3b 15cb 503c 0294 bebb b861 f6bb
00000340: e7fd 78bd 0959 8d3b 4781 543d c8b8 e63b
00000350: 8f82 633d 15b2 7fb9 ca90 f63c 7d84 04bd
00000360: fb96 28bd cb2c 49bd 3523 313b 1271 003d
00000370: 129c 223a 3bd0 b4bd a791 903c 0603 453d
00000380: 5222 833d a25f 063d 333f e13c 5c14 1a3c
00000390: de45 a8bb b63a 933d 7a6b f03b 90be 6e3b
000003a0: 0668 e1bc 53ca 1c3b db81 c6bc f290 0f3c
000003b0: 7638 923d 5440 c1bc aae8 ea3c 7ef7 723c
000003c0: 1bb1 ee3d 7b34 0abc 67a2 183b 3dc6 de3b
000003d0: 075e de3d 863f a83b 787e dcbc caef 9bbd
000003e0: 487d 7dbb 3255 9ebc c7b1 d73c eb6b 2b3d
000003f0: 1ff3 a23c 1fe3 02bd e6c6 97bb a95d 22bc
-0.11349561 -0.03480851 0.004377543 -0.08205858 -0.010879857 0.03084701 -0.019019995 0.038169492
-0.029046599 0.00458783 0.044048015 0.096793056 -0.0007787641 -0.04088506 -0.005213337 0.0037816989
-0.027455267 -0.025679806 0.025994176 -0.014974487 0.019119633 0.019201454 -0.02200175 0.014615754
-0.036889065 0.0039394205 -0.045730684 -0.014038054 -0.03319495 0.006612057 -0.030568095 -0.065745965
-0.027430166 0.0028406908 -0.06334041 0.023126595 -0.013759668 0.024446746 0.106877685 -0.0112088565
-0.0008371078 -0.031566124 0.0018764191 0.03519629 0.010884303 -0.037203822 0.043533437 -0.017763413
-0.08123564 0.047162455 -0.026331978 0.0082006855 0.00021712059 -0.036360268 -0.024162503 -0.0023850314
0.020356413 0.021529563 0.023191415 -0.028657774 0.03777114 -0.022006849 -0.022624074 -0.007898636
0.005179637 -0.08964928 -0.011144903 0.009175732 0.024763787 -0.04366901 -0.0045053014 -0.014072822
0.0052328785 -0.022534786 -0.02412807 0.04207753 -0.016129773 -0.008648346 -0.017940095 0.0043706237
-0.014482676 -0.012001254 -0.10150589 -0.04449183 0.005835898 -0.010291272 -0.021450508 -0.011891443
-0.020227788 -0.07838829 -0.026809543 -0.048989676 -0.010881689 0.021356264 -0.118739486 0.07946202
-0.08765031 0.012458657 -0.030028291 0.015520241 -0.02400695 0.09850602 0.04820509 -0.003365553
-0.0033048587 0.0020459238 0.03861235 -0.02298861 -0.027257906 -0.13008852 0.06723173 0.06529955
0.003379074 0.015602488 0.03025783 -0.0062159626 -0.007865047 0.0077990065 -0.001656283 0.03615603
-0.016766382 -0.0049835294 -0.06297706 0.057571433 0.019925192 -0.017984562 -0.008266374 0.07909986
-0.0018397297 0.028409425 -0.0030887264 0.02892896 0.011858722 0.067702584 0.0067851967 -0.05875761
0.027099596 -0.027163656 0.0057970188 -0.03202587 0.0021094084 0.028089652 0.011458277 -0.005347394
0.016313948 0.011190732 0.02039261 -0.010189566 0.0058138194 0.020031402 0.0014620613 0.00839607
0.018635532 -0.006421292 -0.085934214 -0.0054403143 0.059550554 -0.0029393795 -0.0067001143 0.079491645
0.06836804 0.008240027 0.039669506 0.015519836 0.02828546 -0.050976798 0.011916374 0.094711296
-0.0023728628 0.0032737118 -0.03581936 0.060150404 0.11416588 0.06988087 -0.017252777 0.0047342423
0.110671915 0.025442028 -0.027580017 0.0060950783 -0.0052264864 0.029638978 0.01934941 -0.0048261
-3.764379e-05 0.0708465 -0.030351544 -0.13962191 -0.019087926 -0.031575885 0.0129710045 0.017426895
-0.00051390025 -0.009619946 -0.0097872615 -0.00062807865 0.0047042323 0.02974976 -0.06600999 0.00011341303
0.008145461 -0.006698749 0.02101822 0.043025408 0.0053118225 0.012743731 -0.0058159837 -0.007518973
-0.060789015 0.0043135923 0.0518811 0.0070410706 0.055544432 -0.00024385036 0.030098338 -0.032352913
-0.04115961 -0.049114984 0.0027029042 0.031357832 0.0006203066 -0.08828779 0.017647577 0.048098586
0.064030305 0.032806046 0.027495956 0.009404268 -0.005135282 0.071889326 0.007337031 0.0036429502
-0.027515423 0.0023924306 -0.024231842 0.008762585 0.07139675 -0.023590244 0.028675396 0.014829515
0.11654874 -0.008435364 0.0023290159 0.006798534 0.10857778 0.0051345257 -0.026915774 -0.076140955
-0.003867941 -0.019327734 0.026329888 0.041850965 0.01989132 -0.03195488 -0.004631865 -0.009910026

action_model._continuous_distribution.mu.bias f4 [2]
00000000: 2c38 3f3d 07c2 013b
0.04668443 0.0019799487

50 f4 [8]
00000000: 7331 463d 1f8a 503d 310e 1c3f 8d5d 3d3e
00000010: 4314 0f3f 0785 ef3e 5d05 1c3f e545 f63e
0.048387002 0.050912973 0.60959154 0.18492718 0.5589029 0.4678118 0.60945684 0.481002
